torch 1.13.1
transformers 4.32.0
accelerate 0.20.3
# of gpus:  2
loading llm model /zhangte/mm/model/qwen-vl-7b/qwen-vl-7b_dense
use device  cuda:0
pruning starts
loading calibdation data
dataset loading complete
QWenLMHeadModel(
  (transformer): QWenModel(
    (wte): Embedding(151936, 4096)
    (drop): Dropout(p=0.0, inplace=False)
    (rotary_emb): RotaryEmbedding()
    (h): ModuleList(
      (0): QWenBlock(
        (ln_1): RMSNorm()
        (attn): QWenAttention(
          (c_attn): Linear(in_features=4096, out_features=12288, bias=True)
          (c_proj): Linear(in_features=4096, out_features=4096, bias=False)
          (attn_dropout): Dropout(p=0.0, inplace=False)
        )
        (ln_2): RMSNorm()
        (mlp): QWenMLP(
          (w1): Linear(in_features=4096, out_features=11008, bias=False)
          (w2): Linear(in_features=4096, out_features=11008, bias=False)
          (c_proj): Linear(in_features=11008, out_features=4096, bias=False)
        )
      )
      (1): QWenBlock(
        (ln_1): RMSNorm()
        (attn): QWenAttention(
          (c_attn): Linear(in_features=4096, out_features=12288, bias=True)
          (c_proj): Linear(in_features=4096, out_features=4096, bias=False)
          (attn_dropout): Dropout(p=0.0, inplace=False)
        )
        (ln_2): RMSNorm()
        (mlp): QWenMLP(
          (w1): Linear(in_features=4096, out_features=11008, bias=False)
          (w2): Linear(in_features=4096, out_features=11008, bias=False)
          (c_proj): Linear(in_features=11008, out_features=4096, bias=False)
        )
      )
      (2): QWenBlock(
        (ln_1): RMSNorm()
        (attn): QWenAttention(
          (c_attn): Linear(in_features=4096, out_features=12288, bias=True)
          (c_proj): Linear(in_features=4096, out_features=4096, bias=False)
          (attn_dropout): Dropout(p=0.0, inplace=False)
        )
        (ln_2): RMSNorm()
        (mlp): QWenMLP(
          (w1): Linear(in_features=4096, out_features=11008, bias=False)
          (w2): Linear(in_features=4096, out_features=11008, bias=False)
          (c_proj): Linear(in_features=11008, out_features=4096, bias=False)
        )
      )
      (3): QWenBlock(
        (ln_1): RMSNorm()
        (attn): QWenAttention(
          (c_attn): Linear(in_features=4096, out_features=12288, bias=True)
          (c_proj): Linear(in_features=4096, out_features=4096, bias=False)
          (attn_dropout): Dropout(p=0.0, inplace=False)
        )
        (ln_2): RMSNorm()
        (mlp): QWenMLP(
          (w1): Linear(in_features=4096, out_features=11008, bias=False)
          (w2): Linear(in_features=4096, out_features=11008, bias=False)
          (c_proj): Linear(in_features=11008, out_features=4096, bias=False)
        )
      )
      (4): QWenBlock(
        (ln_1): RMSNorm()
        (attn): QWenAttention(
          (c_attn): Linear(in_features=4096, out_features=12288, bias=True)
          (c_proj): Linear(in_features=4096, out_features=4096, bias=False)
          (attn_dropout): Dropout(p=0.0, inplace=False)
        )
        (ln_2): RMSNorm()
        (mlp): QWenMLP(
          (w1): Linear(in_features=4096, out_features=11008, bias=False)
          (w2): Linear(in_features=4096, out_features=11008, bias=False)
          (c_proj): Linear(in_features=11008, out_features=4096, bias=False)
        )
      )
      (5): QWenBlock(
        (ln_1): RMSNorm()
        (attn): QWenAttention(
          (c_attn): Linear(in_features=4096, out_features=12288, bias=True)
          (c_proj): Linear(in_features=4096, out_features=4096, bias=False)
          (attn_dropout): Dropout(p=0.0, inplace=False)
        )
        (ln_2): RMSNorm()
        (mlp): QWenMLP(
          (w1): Linear(in_features=4096, out_features=11008, bias=False)
          (w2): Linear(in_features=4096, out_features=11008, bias=False)
          (c_proj): Linear(in_features=11008, out_features=4096, bias=False)
        )
      )
      (6): QWenBlock(
        (ln_1): RMSNorm()
        (attn): QWenAttention(
          (c_attn): Linear(in_features=4096, out_features=12288, bias=True)
          (c_proj): Linear(in_features=4096, out_features=4096, bias=False)
          (attn_dropout): Dropout(p=0.0, inplace=False)
        )
        (ln_2): RMSNorm()
        (mlp): QWenMLP(
          (w1): Linear(in_features=4096, out_features=11008, bias=False)
          (w2): Linear(in_features=4096, out_features=11008, bias=False)
          (c_proj): Linear(in_features=11008, out_features=4096, bias=False)
        )
      )
      (7): QWenBlock(
        (ln_1): RMSNorm()
        (attn): QWenAttention(
          (c_attn): Linear(in_features=4096, out_features=12288, bias=True)
          (c_proj): Linear(in_features=4096, out_features=4096, bias=False)
          (attn_dropout): Dropout(p=0.0, inplace=False)
        )
        (ln_2): RMSNorm()
        (mlp): QWenMLP(
          (w1): Linear(in_features=4096, out_features=11008, bias=False)
          (w2): Linear(in_features=4096, out_features=11008, bias=False)
          (c_proj): Linear(in_features=11008, out_features=4096, bias=False)
        )
      )
      (8): QWenBlock(
        (ln_1): RMSNorm()
        (attn): QWenAttention(
          (c_attn): Linear(in_features=4096, out_features=12288, bias=True)
          (c_proj): Linear(in_features=4096, out_features=4096, bias=False)
          (attn_dropout): Dropout(p=0.0, inplace=False)
        )
        (ln_2): RMSNorm()
        (mlp): QWenMLP(
          (w1): Linear(in_features=4096, out_features=11008, bias=False)
          (w2): Linear(in_features=4096, out_features=11008, bias=False)
          (c_proj): Linear(in_features=11008, out_features=4096, bias=False)
        )
      )
      (9): QWenBlock(
        (ln_1): RMSNorm()
        (attn): QWenAttention(
          (c_attn): Linear(in_features=4096, out_features=12288, bias=True)
          (c_proj): Linear(in_features=4096, out_features=4096, bias=False)
          (attn_dropout): Dropout(p=0.0, inplace=False)
        )
        (ln_2): RMSNorm()
        (mlp): QWenMLP(
          (w1): Linear(in_features=4096, out_features=11008, bias=False)
          (w2): Linear(in_features=4096, out_features=11008, bias=False)
          (c_proj): Linear(in_features=11008, out_features=4096, bias=False)
        )
      )
      (10): QWenBlock(
        (ln_1): RMSNorm()
        (attn): QWenAttention(
          (c_attn): Linear(in_features=4096, out_features=12288, bias=True)
          (c_proj): Linear(in_features=4096, out_features=4096, bias=False)
          (attn_dropout): Dropout(p=0.0, inplace=False)
        )
        (ln_2): RMSNorm()
        (mlp): QWenMLP(
          (w1): Linear(in_features=4096, out_features=11008, bias=False)
          (w2): Linear(in_features=4096, out_features=11008, bias=False)
          (c_proj): Linear(in_features=11008, out_features=4096, bias=False)
        )
      )
      (11): QWenBlock(
        (ln_1): RMSNorm()
        (attn): QWenAttention(
          (c_attn): Linear(in_features=4096, out_features=12288, bias=True)
          (c_proj): Linear(in_features=4096, out_features=4096, bias=False)
          (attn_dropout): Dropout(p=0.0, inplace=False)
        )
        (ln_2): RMSNorm()
        (mlp): QWenMLP(
          (w1): Linear(in_features=4096, out_features=11008, bias=False)
          (w2): Linear(in_features=4096, out_features=11008, bias=False)
          (c_proj): Linear(in_features=11008, out_features=4096, bias=False)
        )
      )
      (12): QWenBlock(
        (ln_1): RMSNorm()
        (attn): QWenAttention(
          (c_attn): Linear(in_features=4096, out_features=12288, bias=True)
          (c_proj): Linear(in_features=4096, out_features=4096, bias=False)
          (attn_dropout): Dropout(p=0.0, inplace=False)
        )
        (ln_2): RMSNorm()
        (mlp): QWenMLP(
          (w1): Linear(in_features=4096, out_features=11008, bias=False)
          (w2): Linear(in_features=4096, out_features=11008, bias=False)
          (c_proj): Linear(in_features=11008, out_features=4096, bias=False)
        )
      )
      (13): QWenBlock(
        (ln_1): RMSNorm()
        (attn): QWenAttention(
          (c_attn): Linear(in_features=4096, out_features=12288, bias=True)
          (c_proj): Linear(in_features=4096, out_features=4096, bias=False)
          (attn_dropout): Dropout(p=0.0, inplace=False)
        )
        (ln_2): RMSNorm()
        (mlp): QWenMLP(
          (w1): Linear(in_features=4096, out_features=11008, bias=False)
          (w2): Linear(in_features=4096, out_features=11008, bias=False)
          (c_proj): Linear(in_features=11008, out_features=4096, bias=False)
        )
      )
      (14): QWenBlock(
        (ln_1): RMSNorm()
        (attn): QWenAttention(
          (c_attn): Linear(in_features=4096, out_features=12288, bias=True)
          (c_proj): Linear(in_features=4096, out_features=4096, bias=False)
          (attn_dropout): Dropout(p=0.0, inplace=False)
        )
        (ln_2): RMSNorm()
        (mlp): QWenMLP(
          (w1): Linear(in_features=4096, out_features=11008, bias=False)
          (w2): Linear(in_features=4096, out_features=11008, bias=False)
          (c_proj): Linear(in_features=11008, out_features=4096, bias=False)
        )
      )
      (15): QWenBlock(
        (ln_1): RMSNorm()
        (attn): QWenAttention(
          (c_attn): Linear(in_features=4096, out_features=12288, bias=True)
          (c_proj): Linear(in_features=4096, out_features=4096, bias=False)
          (attn_dropout): Dropout(p=0.0, inplace=False)
        )
        (ln_2): RMSNorm()
        (mlp): QWenMLP(
          (w1): Linear(in_features=4096, out_features=11008, bias=False)
          (w2): Linear(in_features=4096, out_features=11008, bias=False)
          (c_proj): Linear(in_features=11008, out_features=4096, bias=False)
        )
      )
      (16): QWenBlock(
        (ln_1): RMSNorm()
        (attn): QWenAttention(
          (c_attn): Linear(in_features=4096, out_features=12288, bias=True)
          (c_proj): Linear(in_features=4096, out_features=4096, bias=False)
          (attn_dropout): Dropout(p=0.0, inplace=False)
        )
        (ln_2): RMSNorm()
        (mlp): QWenMLP(
          (w1): Linear(in_features=4096, out_features=11008, bias=False)
          (w2): Linear(in_features=4096, out_features=11008, bias=False)
          (c_proj): Linear(in_features=11008, out_features=4096, bias=False)
        )
      )
      (17): QWenBlock(
        (ln_1): RMSNorm()
        (attn): QWenAttention(
          (c_attn): Linear(in_features=4096, out_features=12288, bias=True)
          (c_proj): Linear(in_features=4096, out_features=4096, bias=False)
          (attn_dropout): Dropout(p=0.0, inplace=False)
        )
        (ln_2): RMSNorm()
        (mlp): QWenMLP(
          (w1): Linear(in_features=4096, out_features=11008, bias=False)
          (w2): Linear(in_features=4096, out_features=11008, bias=False)
          (c_proj): Linear(in_features=11008, out_features=4096, bias=False)
        )
      )
      (18): QWenBlock(
        (ln_1): RMSNorm()
        (attn): QWenAttention(
          (c_attn): Linear(in_features=4096, out_features=12288, bias=True)
          (c_proj): Linear(in_features=4096, out_features=4096, bias=False)
          (attn_dropout): Dropout(p=0.0, inplace=False)
        )
        (ln_2): RMSNorm()
        (mlp): QWenMLP(
          (w1): Linear(in_features=4096, out_features=11008, bias=False)
          (w2): Linear(in_features=4096, out_features=11008, bias=False)
          (c_proj): Linear(in_features=11008, out_features=4096, bias=False)
        )
      )
      (19): QWenBlock(
        (ln_1): RMSNorm()
        (attn): QWenAttention(
          (c_attn): Linear(in_features=4096, out_features=12288, bias=True)
          (c_proj): Linear(in_features=4096, out_features=4096, bias=False)
          (attn_dropout): Dropout(p=0.0, inplace=False)
        )
        (ln_2): RMSNorm()
        (mlp): QWenMLP(
          (w1): Linear(in_features=4096, out_features=11008, bias=False)
          (w2): Linear(in_features=4096, out_features=11008, bias=False)
          (c_proj): Linear(in_features=11008, out_features=4096, bias=False)
        )
      )
      (20): QWenBlock(
        (ln_1): RMSNorm()
        (attn): QWenAttention(
          (c_attn): Linear(in_features=4096, out_features=12288, bias=True)
          (c_proj): Linear(in_features=4096, out_features=4096, bias=False)
          (attn_dropout): Dropout(p=0.0, inplace=False)
        )
        (ln_2): RMSNorm()
        (mlp): QWenMLP(
          (w1): Linear(in_features=4096, out_features=11008, bias=False)
          (w2): Linear(in_features=4096, out_features=11008, bias=False)
          (c_proj): Linear(in_features=11008, out_features=4096, bias=False)
        )
      )
      (21): QWenBlock(
        (ln_1): RMSNorm()
        (attn): QWenAttention(
          (c_attn): Linear(in_features=4096, out_features=12288, bias=True)
          (c_proj): Linear(in_features=4096, out_features=4096, bias=False)
          (attn_dropout): Dropout(p=0.0, inplace=False)
        )
        (ln_2): RMSNorm()
        (mlp): QWenMLP(
          (w1): Linear(in_features=4096, out_features=11008, bias=False)
          (w2): Linear(in_features=4096, out_features=11008, bias=False)
          (c_proj): Linear(in_features=11008, out_features=4096, bias=False)
        )
      )
      (22): QWenBlock(
        (ln_1): RMSNorm()
        (attn): QWenAttention(
          (c_attn): Linear(in_features=4096, out_features=12288, bias=True)
          (c_proj): Linear(in_features=4096, out_features=4096, bias=False)
          (attn_dropout): Dropout(p=0.0, inplace=False)
        )
        (ln_2): RMSNorm()
        (mlp): QWenMLP(
          (w1): Linear(in_features=4096, out_features=11008, bias=False)
          (w2): Linear(in_features=4096, out_features=11008, bias=False)
          (c_proj): Linear(in_features=11008, out_features=4096, bias=False)
        )
      )
      (23): QWenBlock(
        (ln_1): RMSNorm()
        (attn): QWenAttention(
          (c_attn): Linear(in_features=4096, out_features=12288, bias=True)
          (c_proj): Linear(in_features=4096, out_features=4096, bias=False)
          (attn_dropout): Dropout(p=0.0, inplace=False)
        )
        (ln_2): RMSNorm()
        (mlp): QWenMLP(
          (w1): Linear(in_features=4096, out_features=11008, bias=False)
          (w2): Linear(in_features=4096, out_features=11008, bias=False)
          (c_proj): Linear(in_features=11008, out_features=4096, bias=False)
        )
      )
      (24): QWenBlock(
        (ln_1): RMSNorm()
        (attn): QWenAttention(
          (c_attn): Linear(in_features=4096, out_features=12288, bias=True)
          (c_proj): Linear(in_features=4096, out_features=4096, bias=False)
          (attn_dropout): Dropout(p=0.0, inplace=False)
        )
        (ln_2): RMSNorm()
        (mlp): QWenMLP(
          (w1): Linear(in_features=4096, out_features=11008, bias=False)
          (w2): Linear(in_features=4096, out_features=11008, bias=False)
          (c_proj): Linear(in_features=11008, out_features=4096, bias=False)
        )
      )
      (25): QWenBlock(
        (ln_1): RMSNorm()
        (attn): QWenAttention(
          (c_attn): Linear(in_features=4096, out_features=12288, bias=True)
          (c_proj): Linear(in_features=4096, out_features=4096, bias=False)
          (attn_dropout): Dropout(p=0.0, inplace=False)
        )
        (ln_2): RMSNorm()
        (mlp): QWenMLP(
          (w1): Linear(in_features=4096, out_features=11008, bias=False)
          (w2): Linear(in_features=4096, out_features=11008, bias=False)
          (c_proj): Linear(in_features=11008, out_features=4096, bias=False)
        )
      )
      (26): QWenBlock(
        (ln_1): RMSNorm()
        (attn): QWenAttention(
          (c_attn): Linear(in_features=4096, out_features=12288, bias=True)
          (c_proj): Linear(in_features=4096, out_features=4096, bias=False)
          (attn_dropout): Dropout(p=0.0, inplace=False)
        )
        (ln_2): RMSNorm()
        (mlp): QWenMLP(
          (w1): Linear(in_features=4096, out_features=11008, bias=False)
          (w2): Linear(in_features=4096, out_features=11008, bias=False)
          (c_proj): Linear(in_features=11008, out_features=4096, bias=False)
        )
      )
      (27): QWenBlock(
        (ln_1): RMSNorm()
        (attn): QWenAttention(
          (c_attn): Linear(in_features=4096, out_features=12288, bias=True)
          (c_proj): Linear(in_features=4096, out_features=4096, bias=False)
          (attn_dropout): Dropout(p=0.0, inplace=False)
        )
        (ln_2): RMSNorm()
        (mlp): QWenMLP(
          (w1): Linear(in_features=4096, out_features=11008, bias=False)
          (w2): Linear(in_features=4096, out_features=11008, bias=False)
          (c_proj): Linear(in_features=11008, out_features=4096, bias=False)
        )
      )
      (28): QWenBlock(
        (ln_1): RMSNorm()
        (attn): QWenAttention(
          (c_attn): Linear(in_features=4096, out_features=12288, bias=True)
          (c_proj): Linear(in_features=4096, out_features=4096, bias=False)
          (attn_dropout): Dropout(p=0.0, inplace=False)
        )
        (ln_2): RMSNorm()
        (mlp): QWenMLP(
          (w1): Linear(in_features=4096, out_features=11008, bias=False)
          (w2): Linear(in_features=4096, out_features=11008, bias=False)
          (c_proj): Linear(in_features=11008, out_features=4096, bias=False)
        )
      )
      (29): QWenBlock(
        (ln_1): RMSNorm()
        (attn): QWenAttention(
          (c_attn): Linear(in_features=4096, out_features=12288, bias=True)
          (c_proj): Linear(in_features=4096, out_features=4096, bias=False)
          (attn_dropout): Dropout(p=0.0, inplace=False)
        )
        (ln_2): RMSNorm()
        (mlp): QWenMLP(
          (w1): Linear(in_features=4096, out_features=11008, bias=False)
          (w2): Linear(in_features=4096, out_features=11008, bias=False)
          (c_proj): Linear(in_features=11008, out_features=4096, bias=False)
        )
      )
      (30): QWenBlock(
        (ln_1): RMSNorm()
        (attn): QWenAttention(
          (c_attn): Linear(in_features=4096, out_features=12288, bias=True)
          (c_proj): Linear(in_features=4096, out_features=4096, bias=False)
          (attn_dropout): Dropout(p=0.0, inplace=False)
        )
        (ln_2): RMSNorm()
        (mlp): QWenMLP(
          (w1): Linear(in_features=4096, out_features=11008, bias=False)
          (w2): Linear(in_features=4096, out_features=11008, bias=False)
          (c_proj): Linear(in_features=11008, out_features=4096, bias=False)
        )
      )
      (31): QWenBlock(
        (ln_1): RMSNorm()
        (attn): QWenAttention(
          (c_attn): Linear(in_features=4096, out_features=12288, bias=True)
          (c_proj): Linear(in_features=4096, out_features=4096, bias=False)
          (attn_dropout): Dropout(p=0.0, inplace=False)
        )
        (ln_2): RMSNorm()
        (mlp): QWenMLP(
          (w1): Linear(in_features=4096, out_features=11008, bias=False)
          (w2): Linear(in_features=4096, out_features=11008, bias=False)
          (c_proj): Linear(in_features=11008, out_features=4096, bias=False)
        )
      )
    )
    (ln_f): RMSNorm()
    (visual): VisionTransformer(
      (conv1): Conv2d(3, 1664, kernel_size=(14, 14), stride=(14, 14), bias=False)
      (ln_pre): LayerNorm((1664,), eps=1e-06, elementwise_affine=True)
      (transformer): TransformerBlock(
        (resblocks): ModuleList(
          (0): VisualAttentionBlock(
            (ln_1): LayerNorm((1664,), eps=1e-06, elementwise_affine=True)
            (ln_2): LayerNorm((1664,), eps=1e-06, elementwise_affine=True)
            (attn): VisualAttention(
              (in_proj): Linear(in_features=1664, out_features=4992, bias=True)
              (out_proj): Linear(in_features=1664, out_features=1664, bias=True)
            )
            (mlp): Sequential(
              (c_fc): Linear(in_features=1664, out_features=8192, bias=True)
              (gelu): GELU(approximate='none')
              (c_proj): Linear(in_features=8192, out_features=1664, bias=True)
            )
          )
          (1): VisualAttentionBlock(
            (ln_1): LayerNorm((1664,), eps=1e-06, elementwise_affine=True)
            (ln_2): LayerNorm((1664,), eps=1e-06, elementwise_affine=True)
            (attn): VisualAttention(
              (in_proj): Linear(in_features=1664, out_features=4992, bias=True)
              (out_proj): Linear(in_features=1664, out_features=1664, bias=True)
            )
            (mlp): Sequential(
              (c_fc): Linear(in_features=1664, out_features=8192, bias=True)
              (gelu): GELU(approximate='none')
              (c_proj): Linear(in_features=8192, out_features=1664, bias=True)
            )
          )
          (2): VisualAttentionBlock(
            (ln_1): LayerNorm((1664,), eps=1e-06, elementwise_affine=True)
            (ln_2): LayerNorm((1664,), eps=1e-06, elementwise_affine=True)
            (attn): VisualAttention(
              (in_proj): Linear(in_features=1664, out_features=4992, bias=True)
              (out_proj): Linear(in_features=1664, out_features=1664, bias=True)
            )
            (mlp): Sequential(
              (c_fc): Linear(in_features=1664, out_features=8192, bias=True)
              (gelu): GELU(approximate='none')
              (c_proj): Linear(in_features=8192, out_features=1664, bias=True)
            )
          )
          (3): VisualAttentionBlock(
            (ln_1): LayerNorm((1664,), eps=1e-06, elementwise_affine=True)
            (ln_2): LayerNorm((1664,), eps=1e-06, elementwise_affine=True)
            (attn): VisualAttention(
              (in_proj): Linear(in_features=1664, out_features=4992, bias=True)
              (out_proj): Linear(in_features=1664, out_features=1664, bias=True)
            )
            (mlp): Sequential(
              (c_fc): Linear(in_features=1664, out_features=8192, bias=True)
              (gelu): GELU(approximate='none')
              (c_proj): Linear(in_features=8192, out_features=1664, bias=True)
            )
          )
          (4): VisualAttentionBlock(
            (ln_1): LayerNorm((1664,), eps=1e-06, elementwise_affine=True)
            (ln_2): LayerNorm((1664,), eps=1e-06, elementwise_affine=True)
            (attn): VisualAttention(
              (in_proj): Linear(in_features=1664, out_features=4992, bias=True)
              (out_proj): Linear(in_features=1664, out_features=1664, bias=True)
            )
            (mlp): Sequential(
              (c_fc): Linear(in_features=1664, out_features=8192, bias=True)
              (gelu): GELU(approximate='none')
              (c_proj): Linear(in_features=8192, out_features=1664, bias=True)
            )
          )
          (5): VisualAttentionBlock(
            (ln_1): LayerNorm((1664,), eps=1e-06, elementwise_affine=True)
            (ln_2): LayerNorm((1664,), eps=1e-06, elementwise_affine=True)
            (attn): VisualAttention(
              (in_proj): Linear(in_features=1664, out_features=4992, bias=True)
              (out_proj): Linear(in_features=1664, out_features=1664, bias=True)
            )
            (mlp): Sequential(
              (c_fc): Linear(in_features=1664, out_features=8192, bias=True)
              (gelu): GELU(approximate='none')
              (c_proj): Linear(in_features=8192, out_features=1664, bias=True)
            )
          )
          (6): VisualAttentionBlock(
            (ln_1): LayerNorm((1664,), eps=1e-06, elementwise_affine=True)
            (ln_2): LayerNorm((1664,), eps=1e-06, elementwise_affine=True)
            (attn): VisualAttention(
              (in_proj): Linear(in_features=1664, out_features=4992, bias=True)
              (out_proj): Linear(in_features=1664, out_features=1664, bias=True)
            )
            (mlp): Sequential(
              (c_fc): Linear(in_features=1664, out_features=8192, bias=True)
              (gelu): GELU(approximate='none')
              (c_proj): Linear(in_features=8192, out_features=1664, bias=True)
            )
          )
          (7): VisualAttentionBlock(
            (ln_1): LayerNorm((1664,), eps=1e-06, elementwise_affine=True)
            (ln_2): LayerNorm((1664,), eps=1e-06, elementwise_affine=True)
            (attn): VisualAttention(
              (in_proj): Linear(in_features=1664, out_features=4992, bias=True)
              (out_proj): Linear(in_features=1664, out_features=1664, bias=True)
            )
            (mlp): Sequential(
              (c_fc): Linear(in_features=1664, out_features=8192, bias=True)
              (gelu): GELU(approximate='none')
              (c_proj): Linear(in_features=8192, out_features=1664, bias=True)
            )
          )
          (8): VisualAttentionBlock(
            (ln_1): LayerNorm((1664,), eps=1e-06, elementwise_affine=True)
            (ln_2): LayerNorm((1664,), eps=1e-06, elementwise_affine=True)
            (attn): VisualAttention(
              (in_proj): Linear(in_features=1664, out_features=4992, bias=True)
              (out_proj): Linear(in_features=1664, out_features=1664, bias=True)
            )
            (mlp): Sequential(
              (c_fc): Linear(in_features=1664, out_features=8192, bias=True)
              (gelu): GELU(approximate='none')
              (c_proj): Linear(in_features=8192, out_features=1664, bias=True)
            )
          )
          (9): VisualAttentionBlock(
            (ln_1): LayerNorm((1664,), eps=1e-06, elementwise_affine=True)
            (ln_2): LayerNorm((1664,), eps=1e-06, elementwise_affine=True)
            (attn): VisualAttention(
              (in_proj): Linear(in_features=1664, out_features=4992, bias=True)
              (out_proj): Linear(in_features=1664, out_features=1664, bias=True)
            )
            (mlp): Sequential(
              (c_fc): Linear(in_features=1664, out_features=8192, bias=True)
              (gelu): GELU(approximate='none')
              (c_proj): Linear(in_features=8192, out_features=1664, bias=True)
            )
          )
          (10): VisualAttentionBlock(
            (ln_1): LayerNorm((1664,), eps=1e-06, elementwise_affine=True)
            (ln_2): LayerNorm((1664,), eps=1e-06, elementwise_affine=True)
            (attn): VisualAttention(
              (in_proj): Linear(in_features=1664, out_features=4992, bias=True)
              (out_proj): Linear(in_features=1664, out_features=1664, bias=True)
            )
            (mlp): Sequential(
              (c_fc): Linear(in_features=1664, out_features=8192, bias=True)
              (gelu): GELU(approximate='none')
              (c_proj): Linear(in_features=8192, out_features=1664, bias=True)
            )
          )
          (11): VisualAttentionBlock(
            (ln_1): LayerNorm((1664,), eps=1e-06, elementwise_affine=True)
            (ln_2): LayerNorm((1664,), eps=1e-06, elementwise_affine=True)
            (attn): VisualAttention(
              (in_proj): Linear(in_features=1664, out_features=4992, bias=True)
              (out_proj): Linear(in_features=1664, out_features=1664, bias=True)
            )
            (mlp): Sequential(
              (c_fc): Linear(in_features=1664, out_features=8192, bias=True)
              (gelu): GELU(approximate='none')
              (c_proj): Linear(in_features=8192, out_features=1664, bias=True)
            )
          )
          (12): VisualAttentionBlock(
            (ln_1): LayerNorm((1664,), eps=1e-06, elementwise_affine=True)
            (ln_2): LayerNorm((1664,), eps=1e-06, elementwise_affine=True)
            (attn): VisualAttention(
              (in_proj): Linear(in_features=1664, out_features=4992, bias=True)
              (out_proj): Linear(in_features=1664, out_features=1664, bias=True)
            )
            (mlp): Sequential(
              (c_fc): Linear(in_features=1664, out_features=8192, bias=True)
              (gelu): GELU(approximate='none')
              (c_proj): Linear(in_features=8192, out_features=1664, bias=True)
            )
          )
          (13): VisualAttentionBlock(
            (ln_1): LayerNorm((1664,), eps=1e-06, elementwise_affine=True)
            (ln_2): LayerNorm((1664,), eps=1e-06, elementwise_affine=True)
            (attn): VisualAttention(
              (in_proj): Linear(in_features=1664, out_features=4992, bias=True)
              (out_proj): Linear(in_features=1664, out_features=1664, bias=True)
            )
            (mlp): Sequential(
              (c_fc): Linear(in_features=1664, out_features=8192, bias=True)
              (gelu): GELU(approximate='none')
              (c_proj): Linear(in_features=8192, out_features=1664, bias=True)
            )
          )
          (14): VisualAttentionBlock(
            (ln_1): LayerNorm((1664,), eps=1e-06, elementwise_affine=True)
            (ln_2): LayerNorm((1664,), eps=1e-06, elementwise_affine=True)
            (attn): VisualAttention(
              (in_proj): Linear(in_features=1664, out_features=4992, bias=True)
              (out_proj): Linear(in_features=1664, out_features=1664, bias=True)
            )
            (mlp): Sequential(
              (c_fc): Linear(in_features=1664, out_features=8192, bias=True)
              (gelu): GELU(approximate='none')
              (c_proj): Linear(in_features=8192, out_features=1664, bias=True)
            )
          )
          (15): VisualAttentionBlock(
            (ln_1): LayerNorm((1664,), eps=1e-06, elementwise_affine=True)
            (ln_2): LayerNorm((1664,), eps=1e-06, elementwise_affine=True)
            (attn): VisualAttention(
              (in_proj): Linear(in_features=1664, out_features=4992, bias=True)
              (out_proj): Linear(in_features=1664, out_features=1664, bias=True)
            )
            (mlp): Sequential(
              (c_fc): Linear(in_features=1664, out_features=8192, bias=True)
              (gelu): GELU(approximate='none')
              (c_proj): Linear(in_features=8192, out_features=1664, bias=True)
            )
          )
          (16): VisualAttentionBlock(
            (ln_1): LayerNorm((1664,), eps=1e-06, elementwise_affine=True)
            (ln_2): LayerNorm((1664,), eps=1e-06, elementwise_affine=True)
            (attn): VisualAttention(
              (in_proj): Linear(in_features=1664, out_features=4992, bias=True)
              (out_proj): Linear(in_features=1664, out_features=1664, bias=True)
            )
            (mlp): Sequential(
              (c_fc): Linear(in_features=1664, out_features=8192, bias=True)
              (gelu): GELU(approximate='none')
              (c_proj): Linear(in_features=8192, out_features=1664, bias=True)
            )
          )
          (17): VisualAttentionBlock(
            (ln_1): LayerNorm((1664,), eps=1e-06, elementwise_affine=True)
            (ln_2): LayerNorm((1664,), eps=1e-06, elementwise_affine=True)
            (attn): VisualAttention(
              (in_proj): Linear(in_features=1664, out_features=4992, bias=True)
              (out_proj): Linear(in_features=1664, out_features=1664, bias=True)
            )
            (mlp): Sequential(
              (c_fc): Linear(in_features=1664, out_features=8192, bias=True)
              (gelu): GELU(approximate='none')
              (c_proj): Linear(in_features=8192, out_features=1664, bias=True)
            )
          )
          (18): VisualAttentionBlock(
            (ln_1): LayerNorm((1664,), eps=1e-06, elementwise_affine=True)
            (ln_2): LayerNorm((1664,), eps=1e-06, elementwise_affine=True)
            (attn): VisualAttention(
              (in_proj): Linear(in_features=1664, out_features=4992, bias=True)
              (out_proj): Linear(in_features=1664, out_features=1664, bias=True)
            )
            (mlp): Sequential(
              (c_fc): Linear(in_features=1664, out_features=8192, bias=True)
              (gelu): GELU(approximate='none')
              (c_proj): Linear(in_features=8192, out_features=1664, bias=True)
            )
          )
          (19): VisualAttentionBlock(
            (ln_1): LayerNorm((1664,), eps=1e-06, elementwise_affine=True)
            (ln_2): LayerNorm((1664,), eps=1e-06, elementwise_affine=True)
            (attn): VisualAttention(
              (in_proj): Linear(in_features=1664, out_features=4992, bias=True)
              (out_proj): Linear(in_features=1664, out_features=1664, bias=True)
            )
            (mlp): Sequential(
              (c_fc): Linear(in_features=1664, out_features=8192, bias=True)
              (gelu): GELU(approximate='none')
              (c_proj): Linear(in_features=8192, out_features=1664, bias=True)
            )
          )
          (20): VisualAttentionBlock(
            (ln_1): LayerNorm((1664,), eps=1e-06, elementwise_affine=True)
            (ln_2): LayerNorm((1664,), eps=1e-06, elementwise_affine=True)
            (attn): VisualAttention(
              (in_proj): Linear(in_features=1664, out_features=4992, bias=True)
              (out_proj): Linear(in_features=1664, out_features=1664, bias=True)
            )
            (mlp): Sequential(
              (c_fc): Linear(in_features=1664, out_features=8192, bias=True)
              (gelu): GELU(approximate='none')
              (c_proj): Linear(in_features=8192, out_features=1664, bias=True)
            )
          )
          (21): VisualAttentionBlock(
            (ln_1): LayerNorm((1664,), eps=1e-06, elementwise_affine=True)
            (ln_2): LayerNorm((1664,), eps=1e-06, elementwise_affine=True)
            (attn): VisualAttention(
              (in_proj): Linear(in_features=1664, out_features=4992, bias=True)
              (out_proj): Linear(in_features=1664, out_features=1664, bias=True)
            )
            (mlp): Sequential(
              (c_fc): Linear(in_features=1664, out_features=8192, bias=True)
              (gelu): GELU(approximate='none')
              (c_proj): Linear(in_features=8192, out_features=1664, bias=True)
            )
          )
          (22): VisualAttentionBlock(
            (ln_1): LayerNorm((1664,), eps=1e-06, elementwise_affine=True)
            (ln_2): LayerNorm((1664,), eps=1e-06, elementwise_affine=True)
            (attn): VisualAttention(
              (in_proj): Linear(in_features=1664, out_features=4992, bias=True)
              (out_proj): Linear(in_features=1664, out_features=1664, bias=True)
            )
            (mlp): Sequential(
              (c_fc): Linear(in_features=1664, out_features=8192, bias=True)
              (gelu): GELU(approximate='none')
              (c_proj): Linear(in_features=8192, out_features=1664, bias=True)
            )
          )
          (23): VisualAttentionBlock(
            (ln_1): LayerNorm((1664,), eps=1e-06, elementwise_affine=True)
            (ln_2): LayerNorm((1664,), eps=1e-06, elementwise_affine=True)
            (attn): VisualAttention(
              (in_proj): Linear(in_features=1664, out_features=4992, bias=True)
              (out_proj): Linear(in_features=1664, out_features=1664, bias=True)
            )
            (mlp): Sequential(
              (c_fc): Linear(in_features=1664, out_features=8192, bias=True)
              (gelu): GELU(approximate='none')
              (c_proj): Linear(in_features=8192, out_features=1664, bias=True)
            )
          )
          (24): VisualAttentionBlock(
            (ln_1): LayerNorm((1664,), eps=1e-06, elementwise_affine=True)
            (ln_2): LayerNorm((1664,), eps=1e-06, elementwise_affine=True)
            (attn): VisualAttention(
              (in_proj): Linear(in_features=1664, out_features=4992, bias=True)
              (out_proj): Linear(in_features=1664, out_features=1664, bias=True)
            )
            (mlp): Sequential(
              (c_fc): Linear(in_features=1664, out_features=8192, bias=True)
              (gelu): GELU(approximate='none')
              (c_proj): Linear(in_features=8192, out_features=1664, bias=True)
            )
          )
          (25): VisualAttentionBlock(
            (ln_1): LayerNorm((1664,), eps=1e-06, elementwise_affine=True)
            (ln_2): LayerNorm((1664,), eps=1e-06, elementwise_affine=True)
            (attn): VisualAttention(
              (in_proj): Linear(in_features=1664, out_features=4992, bias=True)
              (out_proj): Linear(in_features=1664, out_features=1664, bias=True)
            )
            (mlp): Sequential(
              (c_fc): Linear(in_features=1664, out_features=8192, bias=True)
              (gelu): GELU(approximate='none')
              (c_proj): Linear(in_features=8192, out_features=1664, bias=True)
            )
          )
          (26): VisualAttentionBlock(
            (ln_1): LayerNorm((1664,), eps=1e-06, elementwise_affine=True)
            (ln_2): LayerNorm((1664,), eps=1e-06, elementwise_affine=True)
            (attn): VisualAttention(
              (in_proj): Linear(in_features=1664, out_features=4992, bias=True)
              (out_proj): Linear(in_features=1664, out_features=1664, bias=True)
            )
            (mlp): Sequential(
              (c_fc): Linear(in_features=1664, out_features=8192, bias=True)
              (gelu): GELU(approximate='none')
              (c_proj): Linear(in_features=8192, out_features=1664, bias=True)
            )
          )
          (27): VisualAttentionBlock(
            (ln_1): LayerNorm((1664,), eps=1e-06, elementwise_affine=True)
            (ln_2): LayerNorm((1664,), eps=1e-06, elementwise_affine=True)
            (attn): VisualAttention(
              (in_proj): Linear(in_features=1664, out_features=4992, bias=True)
              (out_proj): Linear(in_features=1664, out_features=1664, bias=True)
            )
            (mlp): Sequential(
              (c_fc): Linear(in_features=1664, out_features=8192, bias=True)
              (gelu): GELU(approximate='none')
              (c_proj): Linear(in_features=8192, out_features=1664, bias=True)
            )
          )
          (28): VisualAttentionBlock(
            (ln_1): LayerNorm((1664,), eps=1e-06, elementwise_affine=True)
            (ln_2): LayerNorm((1664,), eps=1e-06, elementwise_affine=True)
            (attn): VisualAttention(
              (in_proj): Linear(in_features=1664, out_features=4992, bias=True)
              (out_proj): Linear(in_features=1664, out_features=1664, bias=True)
            )
            (mlp): Sequential(
              (c_fc): Linear(in_features=1664, out_features=8192, bias=True)
              (gelu): GELU(approximate='none')
              (c_proj): Linear(in_features=8192, out_features=1664, bias=True)
            )
          )
          (29): VisualAttentionBlock(
            (ln_1): LayerNorm((1664,), eps=1e-06, elementwise_affine=True)
            (ln_2): LayerNorm((1664,), eps=1e-06, elementwise_affine=True)
            (attn): VisualAttention(
              (in_proj): Linear(in_features=1664, out_features=4992, bias=True)
              (out_proj): Linear(in_features=1664, out_features=1664, bias=True)
            )
            (mlp): Sequential(
              (c_fc): Linear(in_features=1664, out_features=8192, bias=True)
              (gelu): GELU(approximate='none')
              (c_proj): Linear(in_features=8192, out_features=1664, bias=True)
            )
          )
          (30): VisualAttentionBlock(
            (ln_1): LayerNorm((1664,), eps=1e-06, elementwise_affine=True)
            (ln_2): LayerNorm((1664,), eps=1e-06, elementwise_affine=True)
            (attn): VisualAttention(
              (in_proj): Linear(in_features=1664, out_features=4992, bias=True)
              (out_proj): Linear(in_features=1664, out_features=1664, bias=True)
            )
            (mlp): Sequential(
              (c_fc): Linear(in_features=1664, out_features=8192, bias=True)
              (gelu): GELU(approximate='none')
              (c_proj): Linear(in_features=8192, out_features=1664, bias=True)
            )
          )
          (31): VisualAttentionBlock(
            (ln_1): LayerNorm((1664,), eps=1e-06, elementwise_affine=True)
            (ln_2): LayerNorm((1664,), eps=1e-06, elementwise_affine=True)
            (attn): VisualAttention(
              (in_proj): Linear(in_features=1664, out_features=4992, bias=True)
              (out_proj): Linear(in_features=1664, out_features=1664, bias=True)
            )
            (mlp): Sequential(
              (c_fc): Linear(in_features=1664, out_features=8192, bias=True)
              (gelu): GELU(approximate='none')
              (c_proj): Linear(in_features=8192, out_features=1664, bias=True)
            )
          )
          (32): VisualAttentionBlock(
            (ln_1): LayerNorm((1664,), eps=1e-06, elementwise_affine=True)
            (ln_2): LayerNorm((1664,), eps=1e-06, elementwise_affine=True)
            (attn): VisualAttention(
              (in_proj): Linear(in_features=1664, out_features=4992, bias=True)
              (out_proj): Linear(in_features=1664, out_features=1664, bias=True)
            )
            (mlp): Sequential(
              (c_fc): Linear(in_features=1664, out_features=8192, bias=True)
              (gelu): GELU(approximate='none')
              (c_proj): Linear(in_features=8192, out_features=1664, bias=True)
            )
          )
          (33): VisualAttentionBlock(
            (ln_1): LayerNorm((1664,), eps=1e-06, elementwise_affine=True)
            (ln_2): LayerNorm((1664,), eps=1e-06, elementwise_affine=True)
            (attn): VisualAttention(
              (in_proj): Linear(in_features=1664, out_features=4992, bias=True)
              (out_proj): Linear(in_features=1664, out_features=1664, bias=True)
            )
            (mlp): Sequential(
              (c_fc): Linear(in_features=1664, out_features=8192, bias=True)
              (gelu): GELU(approximate='none')
              (c_proj): Linear(in_features=8192, out_features=1664, bias=True)
            )
          )
          (34): VisualAttentionBlock(
            (ln_1): LayerNorm((1664,), eps=1e-06, elementwise_affine=True)
            (ln_2): LayerNorm((1664,), eps=1e-06, elementwise_affine=True)
            (attn): VisualAttention(
              (in_proj): Linear(in_features=1664, out_features=4992, bias=True)
              (out_proj): Linear(in_features=1664, out_features=1664, bias=True)
            )
            (mlp): Sequential(
              (c_fc): Linear(in_features=1664, out_features=8192, bias=True)
              (gelu): GELU(approximate='none')
              (c_proj): Linear(in_features=8192, out_features=1664, bias=True)
            )
          )
          (35): VisualAttentionBlock(
            (ln_1): LayerNorm((1664,), eps=1e-06, elementwise_affine=True)
            (ln_2): LayerNorm((1664,), eps=1e-06, elementwise_affine=True)
            (attn): VisualAttention(
              (in_proj): Linear(in_features=1664, out_features=4992, bias=True)
              (out_proj): Linear(in_features=1664, out_features=1664, bias=True)
            )
            (mlp): Sequential(
              (c_fc): Linear(in_features=1664, out_features=8192, bias=True)
              (gelu): GELU(approximate='none')
              (c_proj): Linear(in_features=8192, out_features=1664, bias=True)
            )
          )
          (36): VisualAttentionBlock(
            (ln_1): LayerNorm((1664,), eps=1e-06, elementwise_affine=True)
            (ln_2): LayerNorm((1664,), eps=1e-06, elementwise_affine=True)
            (attn): VisualAttention(
              (in_proj): Linear(in_features=1664, out_features=4992, bias=True)
              (out_proj): Linear(in_features=1664, out_features=1664, bias=True)
            )
            (mlp): Sequential(
              (c_fc): Linear(in_features=1664, out_features=8192, bias=True)
              (gelu): GELU(approximate='none')
              (c_proj): Linear(in_features=8192, out_features=1664, bias=True)
            )
          )
          (37): VisualAttentionBlock(
            (ln_1): LayerNorm((1664,), eps=1e-06, elementwise_affine=True)
            (ln_2): LayerNorm((1664,), eps=1e-06, elementwise_affine=True)
            (attn): VisualAttention(
              (in_proj): Linear(in_features=1664, out_features=4992, bias=True)
              (out_proj): Linear(in_features=1664, out_features=1664, bias=True)
            )
            (mlp): Sequential(
              (c_fc): Linear(in_features=1664, out_features=8192, bias=True)
              (gelu): GELU(approximate='none')
              (c_proj): Linear(in_features=8192, out_features=1664, bias=True)
            )
          )
          (38): VisualAttentionBlock(
            (ln_1): LayerNorm((1664,), eps=1e-06, elementwise_affine=True)
            (ln_2): LayerNorm((1664,), eps=1e-06, elementwise_affine=True)
            (attn): VisualAttention(
              (in_proj): Linear(in_features=1664, out_features=4992, bias=True)
              (out_proj): Linear(in_features=1664, out_features=1664, bias=True)
            )
            (mlp): Sequential(
              (c_fc): Linear(in_features=1664, out_features=8192, bias=True)
              (gelu): GELU(approximate='none')
              (c_proj): Linear(in_features=8192, out_features=1664, bias=True)
            )
          )
          (39): VisualAttentionBlock(
            (ln_1): LayerNorm((1664,), eps=1e-06, elementwise_affine=True)
            (ln_2): LayerNorm((1664,), eps=1e-06, elementwise_affine=True)
            (attn): VisualAttention(
              (in_proj): Linear(in_features=1664, out_features=4992, bias=True)
              (out_proj): Linear(in_features=1664, out_features=1664, bias=True)
            )
            (mlp): Sequential(
              (c_fc): Linear(in_features=1664, out_features=8192, bias=True)
              (gelu): GELU(approximate='none')
              (c_proj): Linear(in_features=8192, out_features=1664, bias=True)
            )
          )
          (40): VisualAttentionBlock(
            (ln_1): LayerNorm((1664,), eps=1e-06, elementwise_affine=True)
            (ln_2): LayerNorm((1664,), eps=1e-06, elementwise_affine=True)
            (attn): VisualAttention(
              (in_proj): Linear(in_features=1664, out_features=4992, bias=True)
              (out_proj): Linear(in_features=1664, out_features=1664, bias=True)
            )
            (mlp): Sequential(
              (c_fc): Linear(in_features=1664, out_features=8192, bias=True)
              (gelu): GELU(approximate='none')
              (c_proj): Linear(in_features=8192, out_features=1664, bias=True)
            )
          )
          (41): VisualAttentionBlock(
            (ln_1): LayerNorm((1664,), eps=1e-06, elementwise_affine=True)
            (ln_2): LayerNorm((1664,), eps=1e-06, elementwise_affine=True)
            (attn): VisualAttention(
              (in_proj): Linear(in_features=1664, out_features=4992, bias=True)
              (out_proj): Linear(in_features=1664, out_features=1664, bias=True)
            )
            (mlp): Sequential(
              (c_fc): Linear(in_features=1664, out_features=8192, bias=True)
              (gelu): GELU(approximate='none')
              (c_proj): Linear(in_features=8192, out_features=1664, bias=True)
            )
          )
          (42): VisualAttentionBlock(
            (ln_1): LayerNorm((1664,), eps=1e-06, elementwise_affine=True)
            (ln_2): LayerNorm((1664,), eps=1e-06, elementwise_affine=True)
            (attn): VisualAttention(
              (in_proj): Linear(in_features=1664, out_features=4992, bias=True)
              (out_proj): Linear(in_features=1664, out_features=1664, bias=True)
            )
            (mlp): Sequential(
              (c_fc): Linear(in_features=1664, out_features=8192, bias=True)
              (gelu): GELU(approximate='none')
              (c_proj): Linear(in_features=8192, out_features=1664, bias=True)
            )
          )
          (43): VisualAttentionBlock(
            (ln_1): LayerNorm((1664,), eps=1e-06, elementwise_affine=True)
            (ln_2): LayerNorm((1664,), eps=1e-06, elementwise_affine=True)
            (attn): VisualAttention(
              (in_proj): Linear(in_features=1664, out_features=4992, bias=True)
              (out_proj): Linear(in_features=1664, out_features=1664, bias=True)
            )
            (mlp): Sequential(
              (c_fc): Linear(in_features=1664, out_features=8192, bias=True)
              (gelu): GELU(approximate='none')
              (c_proj): Linear(in_features=8192, out_features=1664, bias=True)
            )
          )
          (44): VisualAttentionBlock(
            (ln_1): LayerNorm((1664,), eps=1e-06, elementwise_affine=True)
            (ln_2): LayerNorm((1664,), eps=1e-06, elementwise_affine=True)
            (attn): VisualAttention(
              (in_proj): Linear(in_features=1664, out_features=4992, bias=True)
              (out_proj): Linear(in_features=1664, out_features=1664, bias=True)
            )
            (mlp): Sequential(
              (c_fc): Linear(in_features=1664, out_features=8192, bias=True)
              (gelu): GELU(approximate='none')
              (c_proj): Linear(in_features=8192, out_features=1664, bias=True)
            )
          )
          (45): VisualAttentionBlock(
            (ln_1): LayerNorm((1664,), eps=1e-06, elementwise_affine=True)
            (ln_2): LayerNorm((1664,), eps=1e-06, elementwise_affine=True)
            (attn): VisualAttention(
              (in_proj): Linear(in_features=1664, out_features=4992, bias=True)
              (out_proj): Linear(in_features=1664, out_features=1664, bias=True)
            )
            (mlp): Sequential(
              (c_fc): Linear(in_features=1664, out_features=8192, bias=True)
              (gelu): GELU(approximate='none')
              (c_proj): Linear(in_features=8192, out_features=1664, bias=True)
            )
          )
          (46): VisualAttentionBlock(
            (ln_1): LayerNorm((1664,), eps=1e-06, elementwise_affine=True)
            (ln_2): LayerNorm((1664,), eps=1e-06, elementwise_affine=True)
            (attn): VisualAttention(
              (in_proj): Linear(in_features=1664, out_features=4992, bias=True)
              (out_proj): Linear(in_features=1664, out_features=1664, bias=True)
            )
            (mlp): Sequential(
              (c_fc): Linear(in_features=1664, out_features=8192, bias=True)
              (gelu): GELU(approximate='none')
              (c_proj): Linear(in_features=8192, out_features=1664, bias=True)
            )
          )
          (47): VisualAttentionBlock(
            (ln_1): LayerNorm((1664,), eps=1e-06, elementwise_affine=True)
            (ln_2): LayerNorm((1664,), eps=1e-06, elementwise_affine=True)
            (attn): VisualAttention(
              (in_proj): Linear(in_features=1664, out_features=4992, bias=True)
              (out_proj): Linear(in_features=1664, out_features=1664, bias=True)
            )
            (mlp): Sequential(
              (c_fc): Linear(in_features=1664, out_features=8192, bias=True)
              (gelu): GELU(approximate='none')
              (c_proj): Linear(in_features=8192, out_features=1664, bias=True)
            )
          )
        )
      )
      (attn_pool): Resampler(
        (kv_proj): Linear(in_features=1664, out_features=4096, bias=False)
        (attn): MultiheadAttention(
          (out_proj): NonDynamicallyQuantizableLinear(in_features=4096, out_features=4096, bias=True)
        )
        (ln_q): LayerNorm((4096,), eps=1e-06, elementwise_affine=True)
        (ln_kv): LayerNorm((4096,), eps=1e-06, elementwise_affine=True)
      )
      (ln_post): LayerNorm((4096,), eps=1e-06, elementwise_affine=True)
    )
  )
  (lm_head): Linear(in_features=4096, out_features=151936, bias=False)
)
